checkpoint_critic.pth (torch, 45519 bytes, 7 tensors)

fc1.weight f4 [64, 37]
00000000: 400d be3d db0f 013d 1ae6 273e 7a06 6a3d
00000010: 2c88 11be 3c85 19be 617f 39bc b061 59bb
00000020: 80b6 53be 12ca e03d 4d37 c13d 78d0 24be
00000030: c7cd 473e fc23 a83d 8941 9ebd dbb8 21bc
00000040: cfad 8cbb a54e 26bd 5d90 143e 1543 053d
00000050: 223b 1d3e e3d1 bb3d ac8a 0e3e f28e 7c3d
00000060: 31c6 293c 4639 d6bd ffcf d4bd 6b1a a1bd
00000070: 957c 283c 442d 6582 6b1a a13d 082a 3602
00000080: eeee a73e 3a4d e6bc 40fd 42bd 83fc 533d
00000090: 4ae6 3bbd d38c 0c3e cf55 703e 6a9d 5dbd
000000a0: 0950 60bd 403a 6f3d 0cd1 fb3d 34e8 85bb
000000b0: 4066 e4bd f192 e63c 6bfc 9ebd f93c 5dbd
000000c0: 1e21 693c 6545 7d3d 4bd0 61bd 47ad c4bd
000000d0: 13ff dc3d 096b a83a 4831 e3bd 0ad0 9b3d
000000e0: 63e0 55bd bc88 94bc 5b73 ab3a 2d78 d5bd
000000f0: edf1 d43c 8ecc 90bc 7eaf 593d a6f3 c1bc
00000100: c92d 8d3e 15f0 f9bc a533 7282 c92d 8dbe
00000110: 0b6a 3f02 0902 17be cfc3 95bd 6973 6fbd
00000120: 4eff 4b3e 6ac4 b13d 1cad d9bd 82de a0bd
00000130: 6253 e7bc 607e 503e 2c61 4e3d 459d d53d
00000140: bb83 943d 1d5d 5bbd c8bd 013c 3a16 8f3d
00000150: 8062 4d3d 2366 88bc d8e6 a33c 87bf 993d
00000160: c819 0abe 8052 3a3e fc0c e83c 40d8 81bd
00000170: 2017 ccbc 4118 49bd 0636 b33c 6441 c1bc
00000180: c609 21bd 32d2 dd3d b545 57bd dc09 3c3d
00000190: 1218 453c f686 1abe 5a41 42be a2db a281
000001a0: f686 1a3e e6f0 4a82 634f 6fbe 997a 90bd
000001b0: b0bb 9c3d e8c0 0b3c 93bc 743c 42eb 003e
000001c0: 35cb 19be c72e 47bd ba56 e53d 9c1c 3d3e
000001d0: 258f bf3d 770b 8ebd 5fc3 d83c 86f0 eabd
000001e0: 538f fcbc 81d7 cb3b fed0 813d ba00 963d
000001f0: c61e 07be 378b ef3e e160 d63d 5f5d 993d
00000200: cc21 6f3c 1017 583d cda2 273d 3e0f 18bd
00000210: a077 f3bc 84b2 833c a1d0 35bc a034 423e
00000220: 0d33 39bc 603a a53c 2384 a63e 0904 a1bd
00000230: 26d6 7480 2384 a6be 2e0c 0c81 d2b0 fcbd
00000240: 9509 aa3a c7a4 7a3d 8a22 ba3c fac3 af3c
00000250: ecbd 43bd 128b bcbe 75f6 6bbe 7b2e 77ba
00000260: 71a2 173d 9007 4fbd 0e24 f03d 4d11 a3bd
00000270: d433 913b d2f9 d0bd cb0b 243d d8a8 5abd
00000280: cfc0 d83d 4a14 443c 60f9 563e d652 223e
00000290: bc92 073e f6ab 0d3c 2293 4bbc b7b0 09bd
000002a0: e2ba 1f3d 8628 2dbd 5e08 b83c b615 eb3c
000002b0: 2daf 013d 4e2a 04be 57b1 173d 523c c5bd
000002c0: 62c8 eebd 2ace d301 523c c53d fe5d 8a81
000002d0: b336 4e3e 2816 e53c 0343 a03b cc79 7f3d
000002e0: 6703 9e3c 1050 053e 84a2 c43d e110 e5bc
000002f0: 7378 c43d 62d1 c6bd 8c62 82bd d69d 92bd
00000300: e87c 593d e97d 2e3d b6a1 1bbc 6717 1cbc
00000310: 3ee2 10bd ad52 efbc 994c a3be e83f 13be
00000320: 0f18 6c3e d17d 41be 8c3c 6a3d e778 bdbd
00000330: f7dc f83d 310c 763b fa67 11bc 72c1 993c
00000340: e76d eebd 5a5e abbd 5d12 e73d 784d 2a3e
00000350: aa3b e53e 40b1 2bbe 9ca0 5a02 aa3b e5be
00000360: 4099 bf81 0de5 913e 1780 24bd 3675 13bd
00000370: 0622 503d fd17 bfbb c81b 83be d35b 9abe
00000380: ae60 0e3d 2cb4 303d fd41 973d 2f89 213c
00000390: 4c8a 24be d023 413c 82ca 89bd 6a1b 363c
000003a0: 6338 90bb 51cd 60bb af93 bb3c 201a cd3e
000003b0: a23c a23e 9e21 6d3d 85ba c2bd 33ab f5bb
000003c0: 5be2 173e 68b7 2e3b 5b80 4abd b2b4 07bc
000003d0: 5fc2 f53c c245 ed3d 7e46 ac3d 3a10 7a3d
000003e0: a7c1 8ebe e44d 62be 61d5 78bd bb0a 0a00
000003f0: e44d 623e f59b 5582 7205 97be ec2a 3ebd
0.09279871 0.03150926 0.1639637 0.057135083 -0.14212102 -0.14992231 -0.011321873 -0.0033169799
-0.20675087 0.10976042 0.09434376 -0.1609515 0.19512092 0.082099885 -0.077273436 -0.009870733
-0.0042931805 -0.040602345 0.14508195 0.032534678 0.15354589 0.09170892 0.13920087 0.06165976
0.010362194 -0.10460143 -0.103912346 -0.07866367 0.010283609 -1.6837253e-37 0.07866367 1.3383311e-37
0.32799476 -0.028112996 -0.0476048 0.051754486 -0.045873918 0.13725595 0.23470233 -0.0541052
-0.054763827 0.05840516 0.12295732 -0.0040865187 -0.11152315 0.028146239 -0.07762989 -0.054013226
0.014229087 0.061833758 -0.055130284 -0.096033625 0.10790839 0.0012849282 -0.11093384 0.0760804
-0.052215945 -0.018131606 0.0013080643 -0.10423312 0.025994265 -0.017675664 0.053145878 -0.023675751
0.27573994 -0.030509988 -1.7794173e-37 -0.27573994 1.4062897e-37 -0.1474687 -0.07312738 -0.058459673
0.1992161 0.08680041 -0.10628721 -0.0785494 -0.028238002 0.20360708 0.05038564 0.104303874
0.07251688 -0.053555597 0.0079187825 0.06986661 0.050142765 -0.016650265 0.020007536 0.07507234
-0.13486397 0.18195534 0.028326504 -0.063400745 -0.02491337 -0.049095396 0.021876346 -0.023590751
-0.03931596 0.10831107 -0.052556712 0.04590784 0.012029665 -0.15090546 -0.18970242 -5.982456e-38
0.15090546 -1.4909751e-37 -0.23370127 -0.07054634 0.07652986 0.008529879 0.014937538 0.12589744
-0.15018924 -0.048628595 0.111981824 0.18467945 0.093534745 -0.069357805 0.026460348 -0.114716575
-0.030830061 0.0062207584 0.0633869 0.07324357 -0.13195333 0.467859 0.10467697 0.07488512
0.01459546 0.05275637 0.040926743 -0.03712391 -0.029720128 0.016076334 -0.011097104 0.18965387
-0.011303675 0.020169437 0.32522687 -0.07862098 -1.072974e-38 -0.32522687 -2.5722677e-38 -0.12338413
0.0012972826 0.0611923 0.022721548 0.021455754 -0.047788545 -0.36824852 -0.23043235 -0.00094292284
0.03702015 -0.05054432 0.11725627 -0.07962284 0.004431227 -0.102038994 0.04005031 -0.05338368
0.1058365 0.011967728 0.20993567 0.15851912 0.13239568 0.008646956 -0.012425216 -0.033615794
0.038996585 -0.042274974 0.022464927 0.028696876 0.0316612 -0.12906763 0.03703436 -0.09630646
-0.11659314 7.780499e-38 0.09630646 -5.0828066e-38 0.20138054 0.027964666 0.004890801 0.062372014
0.019288732 0.13018823 0.0960131 -0.02796215 0.09593286 -0.09707905 -0.063664526 -0.07159011
0.053097636 0.042600546 -0.009499004 -0.009527064 -0.03537201 -0.029214228 -0.31894377 -0.14379847
0.23056053 -0.18895651 0.05718665 -0.09251576 0.12151521 0.0037543888 -0.008874888 0.018769
-0.11642056 -0.083676055 0.112827994 0.16631114 0.44772083 -0.16766834 1.6062203e-37 -0.44772083
-7.038222e-38 0.28495064 -0.04016122 -0.036000453 0.050813697 -0.005831717 -0.25607133 -0.3014818
0.03476017 0.043140575 0.07385633 0.009859367 -0.16068381 0.0117883235 -0.067280784 0.011114934
-0.004401253 -0.0034302066 0.02289757 0.40058994 0.31686884 0.057893388 -0.09508232 -0.007497215
0.14832442 0.0026659612 -0.049438816 -0.008282827 0.02999991 0.11585571 0.08411883 0.06105063
-0.2788212 -0.22100025 -0.06075037 9.22204e-40 0.22100025 -1.5693526e-37 -0.29496342 -0.046427652

fc1.bias f4 [64]
00000000: 731a a13d d02d 8dbe f986 1a3e 2b84 a6be
00000010: 583c c53d ac3b e5be e54d 623e 4109 04bc
00000020: 9ebc db3e 46ab bcbe 1382 383e dfe0 583e
00000030: a502 dfbd fdc9 81be 4668 8d3e 213b 923e
00000040: 2158 443d 5b7d 25be 22de 693d ecf7 3e3e
00000050: bbeb 92bd ebc8 49bd fc2e 783e 3d91 bcbe
00000060: e6bd 28be 31ca e9be 98d2 bbbe c9c9 abbe
00000070: 7baa 14bd 03a0 053e d69b 5cbe 9ff6 6fbe
00000080: 647d cab9 6a73 a33e 5e70 263e f672 493e
00000090: 5b9c b03d 4718 b0be 5483 e0ba 6027 843e
000000a0: cbb4 8fbe 90b0 033e 4ab3 f439 717b d8be
000000b0: 507f 81bd aa52 aabd e67a 03be c17e a23e
000000c0: 5899 b63d dbd2 3a3e b367 333d d3e0 74be
000000d0: 36f1 b43e c1b1 9c3e 112f 93b9 9627 cb3d
000000e0: 7017 323e 5226 c33e 5b4d 7ebe ac87 6c3e
000000f0: 9bfc 4abe ab18 643e 3637 9fbe cafc 903e
0.07866373 -0.27574015 0.1509055 -0.3252271 0.0963065 -0.4477209 0.22100027 -0.008058847
0.4291734 -0.3684942 0.1801837 0.21179532 -0.10889176 -0.25349417 0.27618617 0.28560737
0.04793561 -0.161611 0.057096608 0.18649262 -0.07173868 -0.049263876 0.24236673 -0.36829558
-0.1647869 -0.45662072 -0.36684108 -0.33552387 -0.036295395 0.13049321 -0.21543822 -0.23433922
-0.00038621866 0.3192399 0.16253802 0.1967276 0.086235724 -0.34393522 -0.0017128983 0.2581129
-0.28067622 0.12860322 0.00046672887 -0.42281678 -0.06323111 -0.08316548 -0.12839851 0.3173733
0.08915967 0.18244497 0.043800067 -0.23913889 0.3534028 0.30604365 -0.00028073092 0.0991966
0.17391753 0.38115174 -0.24834196 0.2309863 -0.19822924 0.22275035 -0.3109681 0.28317863

fc2.weight f4 [64, 64]
00000000: 7769 79bb 60b5 8a3b 3cec 363a a251 99bb
00000010: 1605 83bb a85d 32bb f28a 82ba 20a5 f93b
00000020: d148 14bb 1fc6 4d3b 9c2c 9abb 9d90 8db9
00000030: 4637 cebb fa80 7b3a 11a2 17bc 08c5 a53a
00000040: 36cb 4f3c e444 50bb 1a68 b43b 7d89 513a
00000050: 627e 203c 9821 8a3b aaeb 42bb 084d 7b39
00000060: 66fa b23b 6557 71bb d75f b0bb f9c5 c83a
00000070: 83f1 993b e9fd 76bb f1b4 ccb9 a8df e9ba
00000080: 4e56 08bc fdda af3b 296e 0bbb 5c23 313b
00000090: 7ac6 f2ba 564f 74bb a8ba 843c 69cc 273b
000000a0: 3cd0 43bc 224c adba 62a0 803c 3628 763b
000000b0: b495 81bb 033c 553a b086 053c 646b 42bb
000000c0: a848 04bb 818b a8b9 7f80 b139 4d7f d838
000000d0: 45a5 6b3b 06f5 d9bb 2e51 183c c7ba 193a
000000e0: 793d 8d3b d225 afbb eed9 bb3b e0f9 a93b
000000f0: ffe3 7338 7198 4f3b 192d 6b3b f82c da39
00000100: c3f3 38bb 5526 4d3a d324 443b aa5d 073b
00000110: d41f 4fbc 243b 9abb aca1 0ebc efb5 183c
00000120: 6a8a b9ba ea59 173b c742 24bb d2de 6d3a
00000130: 6a1d 343b 7430 21bb 8680 ceba ef77 0a3c
00000140: bfaa bf3b 71c8 7f3b 36aa 023b a52c 9f39
00000150: 2e55 e83a ef2c ba3b 2281 44bb 6539 663b
00000160: 37df c13b 33da c23b e8e2 a43a eeff 07b9
00000170: dc59 00bc 5dff cbbb 0d9f 98bb bf3a 7dba
00000180: e410 d53b 5697 0038 e1c1 303b ede9 c2bb
00000190: 7b8d 3e3c 8753 5dba bea3 d93b 8126 503b
000001a0: f3f3 7cbb f2b5 7b3b 7a8f eb3a 90e8 09bc
000001b0: a7f7 d0bb 6237 38bb 4019 043c 75d2 fe3a
000001c0: c7ed e339 f84a 54bb eb9f fa3b 3d45 633b
000001d0: 8e40 f8ba 11db 9b3b bfce 87bb cc75 5f3b
000001e0: 70fa 88bb 706e a5b9 94ea 50bb 29fb 5b3b
000001f0: f96d 663a 27cf 2e3a fd8c 22bb 9f0d 303b
00000200: 3371 113c d6f7 87bb 58d0 d6ba b80b 9fbb
00000210: 8f46 ad39 6889 6abb 1431 f6b9 4a42 a13a
00000220: c6ae 5a3b 7e37 ec3a 8c21 073c a284 aebb
00000230: 0900 a43b e5d8 5439 412e 45bb 9c81 3dba
00000240: 7848 7e3b b64a 5c3b 4c69 3f3b de54 56bb
00000250: 899c cabb 6597 0a3c 22fb 78bc 0165 cd3b
00000260: 133d 893a aa6d 86bb 9f74 aeba a21d 893a
00000270: 82f2 d93b c4f8 af3b a14e 5cbb e40b 113c
00000280: 9be2 c23b 8a6d 6cbb ba05 4b3b 818b 8fba
00000290: ceac 4a3b b4b2 fb39 411c b1bb 97eb 99bb
000002a0: 58aa 80bc 96ce 0e3c 4283 81bc 458f 9ebb
000002b0: 4509 ab3b ccfc 513b 6a0a 1ebb ec98 4abb
000002c0: cc70 16bb eef8 bcba 9724 d43b 4691 423b
000002d0: eeec 5bba de80 19bb 2cc0 02bc cabc 503b
000002e0: 814f d4bb f006 c8bb 741c de39 1aec 8c3b
000002f0: eb17 e53b 4116 49ba e8a6 74bb 217b 3f3c
00000300: eeb9 ffbd 0c15 f4bd 0432 a4bd 4df0 01be
00000310: 6654 403c 934d 38be b7b1 8f3c 2498 dbbc
00000320: c3cf a83d 802f 383e 6aa2 553a 8246 47bd
00000330: 8548 c8bd 69ad 2e3e d5c8 d63d 4298 50bc
00000340: bf26 c0bd 916b 93bd ca56 803e 3b40 903d
00000350: 1fe9 42bc 2171 9abd 6584 ecba 5031 21bd
00000360: a29c a43d 0904 42bd 3fa1 ab3d 5689 01be
00000370: e5ab 39bd 8b52 65be 560f 3ebd 4a5d 563b
00000380: 0d27 84bb 6e8b 36be 23bb 90bd 4f64 23ba
00000390: cd1d 51bc cadd 87bc 0d9e 433b f9f6 623e
000003a0: bf9c 10be 0787 433d 97c0 2c3b beb2 47be
000003b0: 26d5 113c 16fb b3bc 5f49 7e3e 0998 56bc
000003c0: 42f1 f4b9 9df9 563e ae7a 993d 8154 793d
000003d0: e4f8 6f3e d6a7 133e 509f a4ba f3db bbbd
000003e0: 5b50 1a3e fb11 873e 2403 403e d063 c6bd
000003f0: 4c1d b4bc 6f3e e03c e4db 2fbe e852 083e
-0.0038057247 0.0042330474 0.00069779507 -0.004678921 -0.003998409 -0.0027216468 -0.0009959622 0.0076185614
-0.002262641 0.0031398607 -0.004705025 -0.0002700136 -0.00629321 0.0009594109 -0.009254948 0.0012647221
0.012682727 -0.0031779343 0.005505574 0.00079932046 0.009795757 0.0042154305 -0.0029742518 0.00023965922
0.0054619787 -0.0036825773 -0.0053825187 0.001531779 0.00469798 -0.0037687963 -0.00039044724 -0.0017843144
-0.008321358 0.0053666816 -0.0021275377 0.0027029132 -0.0018522285 -0.0037278733 0.016202286 0.0025604016
-0.011951502 -0.0013221542 0.015701476 0.0037560589 -0.0039546136 0.00081342476 0.008149788 -0.002966606
-0.0020184908 -0.00032147396 0.00033855808 0.00010323394 0.0035956663 -0.0066515235 0.0092966985 0.0005864319
0.0043103066 -0.0053450847 0.0057327664 0.005187258 5.8148053e-05 0.0031676556 0.0035885035 0.00041613705
-0.0028221465 0.00078258413 0.0029929176 0.0020655193 -0.012641866 -0.004706757 -0.008705538 0.00932072
-0.001415563 0.0023094364 -0.0025064216 0.00090740353 0.0027483352 -0.002459553 -0.0015754856 0.008451446
0.005849212 0.0039029384 0.001993788 0.00030360106 0.0017725581 0.005681626 -0.0029984196 0.0035129425
0.005916502 0.0059464215 0.001257983 -0.00012969945 -0.007833924 -0.00622551 -0.004657632 -0.0009659938
0.0065022577 3.065852e-05 0.002697103 -0.0059482963 0.011630411 -0.00084429275 0.006641834 0.0031761231
-0.0038597554 0.0038408008 0.0017971836 -0.008417264 -0.0063771787 -0.0028109183 0.008062661 0.0019441383
0.00043473972 -0.0032393318 0.0076484582 0.003467872 -0.0018940137 0.0047563394 -0.004144519 0.0034097312
-0.004180245 -0.00031553535 -0.00318781 0.0033566451 0.0008790191 0.00066684413 -0.0024803274 0.0026863588
0.008877086 -0.0041494174 -0.0016388996 -0.004853692 0.00033049702 -0.0035787467 -0.00046957342 0.0012303081
0.0033368333 0.0018021909 0.008247744 -0.0053258697 0.005004887 0.00020298695 -0.0030087384 -0.0007229091
0.003880052 0.0033613867 0.002920705 -0.0032704393 -0.006183211 0.008458947 -0.0151965935 0.006268144
0.0010470472 -0.0041024284 -0.0013309902 0.0010461102 0.0066512236 0.0053702313 -0.0033616202 0.008852933
0.0059474236 -0.0036076033 0.0030978755 -0.001095161 0.0030925754 0.00048007595 -0.0054049795 -0.004697274
-0.015706226 0.008716246 -0.015809659 -0.0048388564 0.005219611 0.0032041548 -0.0024115094 -0.0030913902
-0.0022955416 -0.0014417449 0.0064740884 0.002968864 -0.0008389492 -0.0023422758 -0.007980388 0.0031850808
-0.006479204 -0.0061043426 0.0004236434 0.0043006064 0.0069913766 -0.00076708576 -0.003733093 0.011687071
-0.12486635 -0.11918077 -0.08017352 -0.12689324 0.011738872 -0.17998342 0.017540796 -0.026805945
0.082427524 0.1798687 0.0008149507 -0.048651226 -0.09779457 0.17058338 0.104875244 -0.012731614
-0.0938239 -0.07198251 0.25066215 0.07043501 -0.011896401 -0.07541109 -0.0018044828 -0.03935367
0.08037688 -0.04736713 0.083803646 -0.12650046 -0.045329947 -0.22394769 -0.046401344 0.0032709413
-0.0040329755 -0.17826626 -0.070669435 -0.00062329037 -0.012763453 -0.01658525 0.0029848844 0.22164525
-0.14122294 0.047736194 0.002635991 -0.19501778 0.008900916 -0.021970313 0.24832676 -0.013097771
-0.00046719058 0.20993657 0.074941024 0.060871605 0.23434788 0.14419493 -0.0012559686 -0.09172811
0.15069716 0.26380906 0.18751198 -0.096870065 -0.021986626 0.02737352 -0.17173725 0.13312876

fc2.bias f4 [64]
00000000: f48c 2d3a 4717 863a c0f2 9b3b 674d a43d
00000010: 6f41 28ba 79ac cb3a 838e c7b8 d790 0d3b
00000020: 66a8 733b ed59 1d3b fb0e 5cbd 9811 2abb
00000030: 3272 c3b9 7fc9 adbb 6b31 3dbb 83a6 8dbb
00000040: 3b73 f339 250d 0cbb a072 a1b9 9926 bd3a
00000050: 6354 673e b408 38bb 9af9 7c3b bf55 ac3d
00000060: 608d 62bb 3b5b 5d3b c239 993b f078 aabc
00000070: f258 353b be41 96bb 7cb7 1aba ada1 383b
00000080: 6ad9 9bba 52aa e9ba 24e6 913e 2033 efba
00000090: 29bc 24b9 2754 7a3b 2de6 2db9 4da3 25bb
000000a0: de28 053b 3d4b d23b 2158 b13b bc08 623b
000000b0: d629 7cbb 6a52 013b 958d b4ba a53d 583b
000000c0: ee88 833b abb6 58bb 49b4 be3a b2ef 41bb
000000d0: c8f1 233a 1b4e 53bb 5ad6 be3a 332b 313b
000000e0: 7744 843b 44ca d33a b43b aa3a b56e ebba
000000f0: 130c 343a a1ba 523b 1834 433a 43b5 07bb
0.000662043 0.0010230326 0.0047591627 0.08022576 -0.0006418442 0.0015539072 -9.515604e-05 0.0021601224
0.003717923 0.0024009899 -0.053725224 -0.0025950428 -0.0003727838 -0.005303561 -0.0028868567 -0.0043228283
0.00046434425 -0.002137014 -0.00030793715 0.0014431059 0.22590785 -0.002808136 0.0038600923 0.08414792
-0.003456913 0.0033776301 0.0046760747 -0.02080962 0.0027671424 -0.004585474 -0.0005901975 0.0028172538
-0.0011890356 -0.0017827249 0.28495896 -0.0018249489 -0.00015710354 0.0038197131 -0.00016584313 -0.0025274337
0.0020318548 0.0064176605 0.005412117 0.003449007 -0.0038477085 0.001973296 -0.0013775105 0.0032995727
0.004014126 -0.0033067863 0.0014549579 -0.0029592332 0.0006253985 -0.00322426 0.0014559731 0.0027033805
0.004036482 0.0016158302 0.0012987764 -0.001796207 0.0006868254 0.0032154697 0.0007446422 -0.0020707406

fc3.weight f4 [64, 64]
00000000: da8f d8ba 3a4f 613b ffe6 5839 8f99 f8ba
00000010: d3b4 9937 79b1 9db9 0033 4c3a e299 463a
00000020: cadf 4db9 3b8b 82ba 79a5 7abb ae4a 0eb9
00000030: c169 fbba 73aa 84b8 bda5 683b 50fd 43ba
00000040: 68bb b1b6 9059 e0ba eed7 0cbb 40e4 8fba
00000050: f444 8cba f69d c239 67dd 293b e79e b839
00000060: a548 b338 d9f6 91b9 4b39 ed3a 0430 3c39
00000070: ed06 393a 0b6a 65b8 6f4a 42b8 9315 ba3b
00000080: 1bdb 7939 feaf c83a 03f3 b6ba d78b 3cbb
00000090: 3df1 85ba d2d0 143b ef2c 283a cab6 d6ba
000000a0: f1c8 063b 6562 973a fb17 f73a c196 393a
000000b0: f57d 63ba 126c 1e3b 2104 883a 1358 29b8
000000c0: 295e feba 4523 b3ba 729b 633a 6f19 c93b
000000d0: 5211 a3ba cc16 513a 5d64 15bb c2e6 123a
000000e0: fb19 7d3a b469 a2b8 de34 0fba 97c4 f738
000000f0: a9f4 27b9 3804 92ba 872e e33a bff2 4339
00000100: 32bc 6cba 1dd2 16ba 4117 c0b7 bed3 b1bd
00000110: f02e ebb9 e974 8fb7 1260 9e39 f8ea cd39
00000120: b7d1 963a b27f f939 f677 c7bd e315 8939
00000130: 12e8 b939 d8cd 14ba a19a 0c3a d482 82ba
00000140: 75da 15ba e16b 09ba 584a 8db9 8dc5 063a
00000150: d9f4 03be c795 8c39 a674 b3b9 11e4 2b3e
00000160: fc45 9ab7 a323 663a b6bb 2538 c050 e6bd
00000170: 1cf2 253a f768 10ba 18df a2b9 60f6 9e38
00000180: 64e3 aab9 333f 18b9 b3e4 dcbd caaf c4b9
00000190: 17f5 ee38 796a 44b9 5de2 c539 e2f9 9439
000001a0: e8f8 53b7 3cd2 8cb8 d978 92b9 36c6 2237
000001b0: 3278 01b9 2777 c7b9 70c7 40b8 2b88 ab39
000001c0: c69d 2eba 1a0c 5b39 7ec9 483a 6f37 163a
000001d0: 800a 95ba 7184 68b9 5ab5 f039 dbdb d039
000001e0: bb55 8db9 6636 ecb9 b953 bfb9 7a75 73ba
000001f0: 53a8 0cba cac6 fa38 aa26 9339 0ee3 333a
00000200: 94e3 af3a 9423 9c38 0a31 a939 e3a4 b33d
00000210: c332 413a 69f8 d9b9 0cf5 21ba dd79 59ba
00000220: ce46 caba 1ff0 14ba 36f4 ab3d f4c0 3eb9
00000230: c8fb cbb8 83a7 32b9 9d08 6dba 6329 8d3a
00000240: aa95 253a 17f8 b339 8715 3139 8666 49b9
00000250: 6d01 fb3d 4fc4 2cba e57b a738 2810 1cbe
00000260: f2a0 b1b9 c817 85ba 6385 97b8 3195 d73d
00000270: 6851 ae38 a6e4 a439 936c 083a 4cae 22ba
00000280: 8fa0 563a 329c f338 4a9a 9c3d cfda 033a
00000290: 6613 e539 b890 9439 e990 d1b9 e82f 9cba
000002a0: 57ce 313a fb4a ee38 1a0e 73b7 8a84 0aba
000002b0: e664 8ab8 cf0c 1f3a bc04 36ba b1e5 80b9
000002c0: 04b7 733a 0625 48b9 d56a c9ba fc6c 66ba
000002d0: 0819 0e3a 6ab8 8ab9 1eb1 b0b9 9a95 6439
000002e0: 424a 9b39 c153 523a cb15 843a 0265 003a
000002f0: 463a 633a d0e9 8439 9873 ebb9 bd2d 5fba
00000300: 278c dd3a f6c3 6ebb b477 1cb9 c4c7 b73a
00000310: 41a3 1139 20cc 5139 2a55 02ba 679e 74ba
00000320: 0243 e238 9a70 8f3a 0bf2 2e3b 9951 fd39
00000330: cb9b d13a e07f 6138 cf12 63bb 9c36 f539
00000340: ca04 2438 8fba 1b3b e1a1 d53a 5a86 023a
00000350: 412c aa3a 7195 d4b9 7c17 1fbb 3480 21ba
00000360: e741 0238 aca2 8939 0e87 b9ba 6709 b1ba
00000370: 23d7 ebb9 7612 0fb9 68a6 72b9 d0e1 a5bb
00000380: 8900 3aba 55e3 e0ba af66 b339 7638 1d3b
00000390: c039 9e3a 6841 99ba f214 b3b9 ec14 ad3a
000003a0: 0869 e0b9 aab7 79ba 8cb9 ddba 9b62 6dba
000003b0: 87c3 853a da8a daba 1151 83ba 96b7 9c39
000003c0: 99c9 f63a e97a 8e3a a1da 55ba 766b d0bb
000003d0: 97bd 803a 4644 feb9 31ca 3f3b 39d4 53b9
000003e0: fb58 3cba 7dbf c139 b755 5db9 dae5 8737
000003f0: 6ca4 9c39 e185 763a ebbe b2ba 8ee6 5fb9
-0.0016522363 0.0034379498 0.00020685418 -0.0018966662 1.8323224e-05 -0.000300776 0.0007789582 0.0007576031
-0.00019633691 -0.0009959707 -0.0038245602 -0.00013569996 -0.0019181297 -6.325999e-05 0.0035499178 -0.0007476406
-5.296828e-06 -0.0017116535 -0.0021491009 -0.0010978058 -0.0010701702 0.00037120254 0.002591932 0.00035213606
8.548916e-05 -0.0002784047 0.001809874 0.00017946964 0.0007058222 -5.4696615e-05 -4.6322526e-05 0.0056788414
0.00023828114 0.0015311239 -0.0013957921 -0.0028769874 -0.0010218989 0.0022707474 0.0006415387 -0.001638138
0.0020566548 0.001154971 0.0018851751 0.0007079654 -0.0008678132 0.0024173302 0.0010377207 -4.0374765e-05
-0.0019406724 -0.0013667127 0.0008682526 0.006137065 -0.0012441075 0.0007976114 -0.0022795417 0.00056038436
0.00096550555 -7.744451e-05 -0.0005462895 0.000118144955 -0.00016017504 -0.0011140173 0.0017332592 0.00018687079
-0.0009030729 -0.0005753355 -2.2899012e-05 -0.08682965 -0.00044857664 -1.7101369e-05 0.00030207686 0.00039275712
0.0011506592 0.0004758812 -0.097396776 0.00026146983 0.00035458856 -0.0005676425 0.00053636177 -0.0009957203
-0.00057164516 -0.00052422105 -0.00026949006 0.00051411317 -0.1288637 0.00026814474 -0.0003422845 0.16786219
-1.839082e-05 0.0008779114 3.9513885e-05 -0.112458706 0.00063303276 -0.0005508805 -0.00031065266 7.579918e-05
-0.00032594346 -0.00014519393 -0.107858084 -0.00037515006 0.00011394376 -0.00018731681 0.00037743422 0.00028414937
-1.2634533e-05 -6.7148794e-05 -0.0002793733 9.702102e-06 -0.00012347175 -0.00038045013 -4.5962108e-05 0.00032717115
-0.00066610833 0.00020889976 0.0007659419 0.0005730306 -0.0011370927 -0.00022174582 0.00045911485 0.00039836657
-0.0002695749 -0.00045053958 -0.00036492737 -0.000928722 -0.00053656584 0.00011957956 0.00028066832 0.0006862142
0.0013419264 7.4452866e-05 0.0003227073 0.08771684 0.000736993 -0.00041574545 -0.00061781774 -0.0008296052
-0.0015432478 -0.0005681533 0.08396189 -0.00018191693 -9.726692e-05 -0.00017037806 -0.0009042116 0.001076978
0.0006316552 0.00034326382 0.00016888055 -0.00019207047 0.12256131 -0.00065905316 7.986258e-05 -0.15240538
-0.00033879984 -0.0010154182 -7.225086e-05 0.10526503 8.31213e-05 0.00031450874 0.0005204167 -0.0006205782
0.0008187377 0.000116162366 0.07646616 0.00050298584 0.00043692737 0.00028336584 -0.00039971553 -0.0011916133
0.0006782761 0.000113626906 -1.4487212e-05 -0.0005284032 -6.5991466e-05 0.0006067277 -0.00069434545 -0.00024585196
0.0009296986 -0.00019087279 -0.0015366921 -0.00087900436 0.00054206 -0.0002645881 -0.00033701299 0.00021799505
0.0002961923 0.00080233446 0.0010077296 0.0004897864 0.0008668046 0.00025351206 -0.00044908817 -0.00085135904
0.001690273 -0.003643272 -0.00014921912 0.0014021327 0.00013889094 0.00020007836 -0.0004971797 -0.0009331465
0.00010789001 0.0010943592 0.0026694562 0.00048316715 0.0015991864 5.3763273e-05 -0.0034648662 0.0004677073
3.9105107e-05 0.002376232 0.0016298854 0.00049791264 0.0012983159 -0.00040547134 -0.0024275472 -0.00061607664
3.105579e-05 0.00026251876 -0.0014154629 -0.001350683 -0.00044982982 -0.0001364442 -0.0002314091 -0.0050623193
-0.00070954167 -0.0017157594 0.00034218046 0.0023989952 0.0012071654 -0.0011692466 -0.00034157146 0.0013205088
-0.00042802864 -0.0009525964 -0.0016916259 -0.0009055526 0.0010205366 -0.0016673461 -0.0010018667 0.0002989142
0.0018828391 0.001087037 -0.00081578834 -0.0063604666 0.0009822127 -0.00048497523 0.0029264803 -0.00020201587
-0.000718489 0.00036954499 -0.00021108134 1.6200287e-05 0.00029877143 0.0009404105 -0.001363722 -0.00021352826

fc3.bias f4 [64]
00000000: bfbf 2d3b 6c15 7cbe 9c19 643e 39a9 0fbb
00000010: 2964 933a 15d7 2c3b 9e88 7fbe 860f 1c3b
00000020: d18c e83a 98a1 da39 82ba c5ba 2ea7 26bb
00000030: 5edf 95b9 e99e 173b e16a e139 1bf0 b9ba
00000040: 42ea 963a 4a24 1abb ccc7 af3a bd12 a339
00000050: 2e12 723e a117 7c3e 8928 9638 b6a4 aa3a
00000060: 78f6 293b 2a17 7bbe dcb5 433e e4e2 09bb
00000070: 7323 1ebb a69a 6b3e f5c1 1abb b350 1e3b
00000080: 7305 063b b6c4 f23a f590 1bb9 8543 c6ba
00000090: 047a ef3a 74ef 7cbe e4ca fb3a b1d0 c0ba
000000a0: e56a 793e e3c3 5f3a f263 b7ba 6178 563a
000000b0: a94b 34bb c466 003b 5379 743e d7f5 adba
000000c0: 5c79 c53a 5736 5b3b b20e 72be a67e 9339
000000d0: 2683 f4ba d030 84ba 314e 033b 2a0c d23a
000000e0: 3e63 7a3e b2a2 77be 496e 77be 914e 80be
000000f0: 7636 5ebe d333 793e 3eae 33bb 6bb2 beba
0.0026511995 -0.24617547 0.22275394 -0.0021920933 0.001124506 0.0026373316 -0.24954459 0.0023812964
0.0017742162 0.00041700597 -0.0015085491 -0.0025429237 -0.00028585916 0.002313549 0.00042994975 -0.0014185937
0.0011513906 -0.0023520165 0.0013410985 0.00031103744 0.23639748 0.24618389 7.1601076e-05 0.0013019058
0.002593426 -0.24520555 0.19112343 -0.0021039778 -0.0024130016 0.23008212 -0.0023614143 0.0024156987
0.0020450025 0.0018521759 -0.00014835953 -0.0015126324 0.0018270616 -0.24700719 0.0019210246 -0.0014710632
0.24357183 0.00085359643 -0.0013991578 0.000818139 -0.0027510917 0.0019592503 0.23874407 -0.0013272119
0.0015066075 0.0033449137 -0.23638418 0.00028132385 -0.0018654808 -0.0010085348 0.002003562 0.0016025354
0.2445192 -0.24183157 -0.24163164 -0.2505994 -0.21700463 0.24336176 -0.002741709 -0.0014549022

fc4.weight f4 [1, 64]
00000000: f8a9 4e38 34c3 a3be 8be8 823e 22eb c3b7
00000010: 4699 db37 2b7b 5538 4a0a a6be ac21 0938
00000020: 76e7 cc37 35ec ef37 6b41 5738 cf2d 86b8
00000030: bf87 46b9 0bdb 0738 728a 2139 7c71 64b8
00000040: abdd b5b8 a37a 3bb8 8a53 7138 5094 17b9
00000050: 44e6 933e 2fbc a33e 7ed3 f3b8 f275 9038
00000060: 69ba 8a38 3a6c a0be 81a1 3c3e 987d 81b9
00000070: 148e 5cb8 ceb0 8b3e a700 2eb8 c5db c037
00000080: 0052 0338 062c 0db6 1ab5 0337 e420 3ab8
00000090: 27ed e937 c348 a3be f05c 9838 6115 50b8
000000a0: 42e1 9d3e bbd8 a1b6 d5be 5cb8 d59c 6138
000000b0: b7d8 a5b8 c4b5 e037 ce4e 973e 8868 0eb8
000000c0: e705 aa39 08ca 19b8 0314 94be 383b 27b9
000000d0: 10f2 4ab7 2035 82b8 2b6a 9837 cc34 4b38
000000e0: 5f3d 9f3e 3f63 9bbe 82a6 9dbe d389 abbe
000000f0: de51 77be 9717 9d3e 79c7 6cb8 081a 12b8
4.9272523e-05 -0.31984866 0.2556804 -2.3355304e-05 2.6178208e-05 5.0897866e-05 -0.32429725 3.2694705e-05
2.4426477e-05 2.8601013e-05 5.132092e-05 -6.3981504e-05 -0.00018933321 3.2390508e-05 0.00015405731 -5.4465127e-05
-8.6720414e-05 -4.469849e-05 5.753668e-05 -0.00014455733 0.28886616 0.3197951 -0.000116265364 6.888424e-05
6.6150744e-05 -0.3133257 0.18420984 -0.00024698372 -5.2584408e-05 0.2728333 -4.148544e-05 2.2990522e-05
3.1309202e-05 -2.1036262e-06 7.8503745e-06 -4.4376487e-05 2.7886197e-05 -0.3189145 7.265236e-05 -4.9610975e-05
0.3083592 -4.8234047e-06 -5.2629814e-05 5.379024e-05 -7.9081794e-05 2.6787522e-05 0.2955231 -3.395279e-05
0.00032429324 -3.66662e-05 -0.28921518 -0.00015948422 -1.2096498e-05 -6.208778e-05 1.816925e-05 4.8448142e-05
0.3110151 -0.30349156 -0.30791098 -0.3350359 -0.24152324 0.3068206 -5.6452558e-05 -3.4833356e-05
