checkpoint_actor.pth (torch, 28183 bytes, 6 tensors)

fc1.weight f4 [64, 33]
0.099707164 0.009529315 -0.048610497 -0.05996812 -0.13683875 0.07613865 -0.18989286 0.022957707
-0.06313675 0.085482866 -0.04437277 -0.053033635 -0.012019182 -0.07886939 -0.032270357 -0.0073419674
0.075232804 0.0012142335 0.053405173 -0.07296212 -0.056253113 0.049297594 -0.014061403 0.0127313165
-0.036617387 -0.0053629708 0.15742838 -0.4165991 0.22552273 0.04758042 0.28500062 0.123865545
0.07460611 0.22293557 -0.26495072 0.11513117 0.027193498 0.18405393 -0.021964047 -0.061967216
-0.05103817 -0.07116008 -0.010921263 0.03467913 -0.08110726 0.06234589 -0.12248016 0.089540705
-0.079576045 0.011743452 -0.06798793 0.10673042 -0.014067187 0.08813925 0.02655868 0.0018634031
0.13886338 -0.0020032611 0.026698766 -0.090438336 0.023045685 0.004825541 0.10756983 0.00807239
-0.054014415 -0.029330363 -0.1501456 0.13633145 -0.05642496 0.037750117 0.033561416 -0.05961825
0.027206486 -0.017705172 0.16566017 -0.077594616 -0.028449276 0.04311567 0.018536877 0.15882188
-0.017444741 0.056856506 0.013263695 -0.03799179 0.029296344 -0.0040960778 0.018292492 -0.009531852
-0.005479032 0.07598186 0.012080273 0.021014541 -0.18739133 0.19383849 -0.014272262 -0.083693564
-0.35327283 0.06519979 -1.2737204 -0.012245663 -0.08558615 0.123123564 0.07969565 -0.12578088
-0.08450638 0.014151202 0.025883712 -0.020448107 0.060943272 0.011259199 -0.034755006 0.015957493
0.06370595 0.05206964 -0.002920315 0.061044212 -0.032474123 -0.049875777 0.057609633 0.011043904
-0.0021743102 -0.04626314 -0.027024964 0.0020505025 0.026822949 -0.05368956 -0.52208525 -0.11986054
0.07261804 0.75907105 0.12044197 -0.046842944 -0.23763914 -0.21751632 0.18664707 0.11542464
-0.17241462 -0.0515826 0.0551757 0.021881102 0.043494895 -0.042866547 -0.0844749 -0.024471672
-0.036267404 0.123254746 -0.032646064 -0.16143312 0.0355478 -0.0073276632 -0.04097385 -0.07045038
0.0006401553 -0.011297329 -0.042568285 0.11355964 -0.031826757 -0.015837424 -0.102588244 -0.72428435
0.019435227 0.03147237 0.87195355 -0.112338945 -0.57669824 0.19931696 0.11208584 0.18873169
-0.048012447 0.0051704394 0.08819443 0.0084072985 -0.055166498 0.044985503 0.01169255 -0.0478095
0.03200662 0.093345165 -0.110099696 -0.03149161 -0.097029716 -0.047512017 0.022643222 0.037706446
-0.042917453 -0.0688099 0.017677303 -0.14315675 -0.04750513 -0.076347254 -0.03748025 -0.01589306
0.31453016 -0.18768534 -0.061378643 -0.30201128 -0.074445754 -0.7302204 -0.0247265 -0.10739703
-0.117610686 0.06821722 -0.10029248 0.14725953 0.0036596358 0.04021556 -0.0030327379 -0.049435083
-0.020198947 -0.029415257 0.025294812 0.004875642 0.014908009 0.07306285 -6.963724e-05 -0.008596414
0.033734895 -0.04960332 0.027046395 0.013920821 0.014919771 0.0015403838 0.026570747 0.024988957
-0.06195744 -0.42430076 0.070594594 0.1170252 0.57050776 0.087640524 1.3532257 -0.15009709
0.12527989 -0.1446476 -0.0702974 0.04855771 0.04270487 -0.10197111 0.010310507 -0.009527878
0.1837523 -0.044868466 0.044987496 -0.06669841 0.09472017 -0.028676433 0.11825634 0.02155872
-0.061079443 -0.007994532 0.104145855 0.062804796 0.09206994 -0.047982067 0.041481927 -0.06452275
00000000: 4533 cc3d d820 1c3c cd1b 47bd 22a1 75bd
00000010: 751f 0cbe 95ee 9b3d 4673 42be cd11 bc3c
00000020: d74d 81bd a411 af3d 39c0 35bd cc39 59bd
00000030: 1aec 44bc 4686 a1bd ec2d 04bd e394 f0bb
00000040: a813 9a3d ea26 9f3a 62bf 5a3d 2a6d 95bd
00000050: aa69 66bd 46ec 493d cd61 66bc 0397 503c
00000060: 1dfc 15bd dcbb afbb e834 213e 7a4c d5be
00000070: 6eef 663e b0e3 423d 9aeb 913e 38ad fd3d
00000080: 17cb 983d 3949 643e 9fa7 87be e4c9 eb3d
00000090: e6c4 de3c a278 3c3e f2ed b3bc 56d1 7dbd
000000a0: 660d 51bd 60bc 91bd 19ef 32bc b40b 0e3d
000000b0: 901b a6bd 675e 7f3d e1d6 fabd 1e61 b73d
000000c0: c4f8 a2bd 9c67 403c 413d 8bbd 7a95 da3d
000000d0: 0f7a 66bc 5a82 b43d 9791 d93c 6f3d f43a
000000e0: 3432 0e3e 2549 03bb 5fb7 da3c bc37 b9bd
000000f0: 4eca bc3c 921f 9e3b 924d dc3d 0f42 043c
00000100: 383e 5dbd 3b46 f0bc c5bf 19be 799a 0b3e
00000110: dc1d 67bd de9f 1a3d b277 093d 4432 74bd
00000120: 23e0 de3c 700a 91bc d2a2 293e ede9 9ebd
00000130: 750e e9bc 0f9a 303d a6da 973c 34a2 223e
00000140: 46e8 8ebc 5ee2 683d f84f 593c 479d 1bbd
00000150: e3fe ef3c 6438 86bb 23da 953c 7c2b 1cbc
00000160: 7489 b3bb 619c 9b3d 56ec 453c b026 ac3c
00000170: 83e3 3fbe 997d 463e 35d6 69bc 8867 abbd
00000180: 2de0 b4be 7887 853d 4509 a3bf 09a2 48bc
00000190: cb47 afbd 3528 fc3d 7937 a33d b4cc 00be
000001a0: ae11 adbd 71da 673c 140a d43c ca82 a7bc
000001b0: a79f 793d 8178 383c 445b 0ebd 4ab9 823c
000001c0: 4478 823d fa46 553d c162 3fbb 7f09 7a3d
000001d0: 9603 05bd 8b4a 4cbd 14f8 6b3d 7ef1 343c
000001e0: df7e 0ebb 6b7e 3dbd 7563 ddbc b961 063b
000001f0: cdbb db3c 96e9 5bbd 61a7 05bf 7179 f5bd
00000200: c4b8 943d 7b52 423f 48aa f63d 63de 3fbd
00000210: ad57 73be 99bc 5ebe 6920 3f3e c163 ec3d
00000220: 758d 30be 4748 53bd eaff 613d ff3f b33c
00000230: b427 323d d594 2fbd 2d01 adbd d178 c8bc
00000240: 218d 14bd fc6c fc3d e1b7 05bd b94e 25be
00000250: 929a 113d e51c f0bb 32d4 27bd 4a48 90bd
00000260: 18d0 273a 6f18 39bc 155c 2ebd f591 e83d
00000270: c65c 02bd 7cbd 81bc c919 d2bd b36a 39bf
00000280: a036 9f3c 2ce9 003d 5938 5f3f f611 e6bd
00000290: 7fa2 13bf bf19 4c3e 438d e53d e142 413e
000002a0: b3a8 44bd ca6c a93b 489f b43d c4be 093c
000002b0: 44f6 61bd b842 383d 1c92 3f3c e5d3 43bd
000002c0: 6019 033d c02b bf3d f37b e1bd 59fd 00bd
000002d0: 84b7 c6bd f69b 42bd 477e b93c 1372 1a3d
000002e0: 36ca 2fbd 34ec 8cbd fecf 903c af97 12be
000002f0: bd94 42bd f35b 9cbd e484 19bd 2a32 82bc
00000300: 190a a13e 9630 40be 2c68 7bbd 39a1 9abe
00000310: 0477 98bd b9ef 3abf 3b8f cabc f9f2 dbbd
00000320: dfdd f0bd 78b5 8b3d 2566 cdbd 34cb 163e
00000330: 80d6 6f3b 12b9 243d e6c0 46bb 717c 4abd
00000340: 4378 a5bc 44f8 f0bc 1137 cf3c d9c3 9f3b
00000350: b940 743c faa1 953d 350a 92b8 f9d7 0cbc
00000360: 9a2d 0a3d da2c 4bbd 6790 dd3c 2814 643c
00000370: 0e72 743c b4e6 c93a e5aa d93c a4b5 cc3c
00000380: 16c7 7dbd f33d d9be e693 903d e8aa ef3d
00000390: cc0c 123f e07c b33d 8036 ad3f 0db3 19be
000003a0: 5f49 003e 801e 14be 15f8 8fbd 73e4 463d
000003b0: 4deb 2e3d 3bd6 d0bd 67ed 283c d11a 1cbc
000003c0: 9029 3c3e ffc7 37bd cf44 383d 2d99 88bd
000003d0: a6fc c13d d7ea eabc 6130 f23d ea9b b03c
000003e0: 702e 7abd 7ffb 02bc 6c4a d53d cd9f 803d
000003f0: 2a8f bc3d d888 44bd f4e8 293d 8124 84bd

fc1.bias f4 [64]
0.41060153 0.17422952 -0.24584092 0.73796123 0.73878944 -0.25127465 0.49740154 -0.8156252
-0.33592644 -0.08532862 -0.24236913 -0.105296135 -0.38598168 0.1396017 0.05746739 0.5874002
-0.28092352 0.86391664 -0.06945121 -0.20950082 0.36642268 -0.13889217 0.16270807 0.34368616
-0.1104032 -0.57213986 -0.37564242 -0.32623762 0.4966251 0.6928232 0.49041286 -0.34825796
-0.25663942 -0.6214027 0.19456513 -0.11437057 -0.2882838 0.058250807 0.6173946 -0.30078208
-0.33740127 0.52232045 -0.7475349 0.1739054 0.56303525 -0.4816244 -0.042546634 -0.10326435
0.22438627 0.3706102 -0.24032627 0.279165 -0.36623418 0.6410729 0.2065934 -0.46720913
0.04786214 0.17271002 0.45383468 0.05210155 -0.47148046 -0.18561621 0.22959517 0.0034583325
00000000: 5d3a d23e 3969 323e b9bd 7bbe 07eb 3c3f
00000010: 4e21 3d3f 12a7 80be 6aab fe3e d0cc 50bf
00000020: 8dfe abbe c6c0 aebd 9d2f 78be 80a5 d7bd
00000030: 649f c5be bff3 0e3e ed62 6b3d dc5f 163f
00000040: 35d5 8fbe a429 5d3f 703c 8ebd 6287 56be
00000050: c19b bb3e c039 0ebe f29c 263e a2f7 af3e
00000060: 131b e2bd c277 12bf 3454 c0be 9e08 a7be
00000070: a545 fe3e dc5c 313f 6517 fb3e de4e b2be
00000080: 3e66 83be 3f14 1fbf 153c 473e 1e3b eabd
00000090: ef99 93be 6698 6e3d 930d 1e3f 1c00 9abe
000000a0: dcbf acbe cbb6 053f 725e 3fbf 4214 323e
000000b0: 1423 103f 7997 f6be 6145 2ebd 427c d3bd
000000c0: 84c5 653e 9fc0 bd3e 1718 76be b7ee 8e3e
000000d0: 0c83 bbbe 5b1d 243f 388d 533e 0936 efbe
000000e0: 170b 443d e5da 303e 055d e83e 6f68 553d
000000f0: e365 f1be 2d12 3ebe ff1a 6b3e 31a5 623b

fc2.weight f4 [64, 64]
0.019108366 -0.524512 -0.48656613 -0.20043205 -0.08327307 -0.14050193 0.19081472 0.27797803
0.0035461846 0.50661445 0.3829982 -0.54320395 -0.08270177 -0.5848503 0.13578093 0.31672496
-0.24507743 0.05844433 -0.24680135 -0.4729727 0.23221642 0.008200692 -0.005655336 0.5874528
-0.23070414 0.03698855 0.27619594 0.2645309 0.913095 -0.28908193 0.060462203 0.24304552
0.04933087 0.27920708 -0.19103315 -0.022502964 0.61792266 -0.25294444 -0.23283705 -0.18998563
0.1345127 -0.1870694 0.6987975 -0.39743158 -0.53334594 0.14445063 0.02790404 -0.59294295
0.25512978 -0.49567792 0.38164693 0.28267428 -0.34003407 0.1453815 0.055544555 0.31973714
-0.51605564 -0.18111368 -0.04981738 -0.15191029 -0.3776632 -0.20839441 0.40000343 -0.002637908
-0.36775988 -0.12776576 -0.025213696 0.12542768 0.27173132 0.153918 -0.5044047 0.07571067
-0.38234094 0.23434618 0.025860872 -0.028852072 0.6855225 0.12974364 -0.04794751 0.14876296
-0.2843659 0.0709134 -0.49211735 0.089399345 0.5611205 0.21758571 0.9400564 0.3549426
0.4993579 -0.9334742 -0.4594486 -0.6384915 0.17435372 0.3378248 0.27390537 -0.14739984
-0.3316025 -0.39147323 -0.072136596 -0.0003231564 0.34177473 -0.19784707 0.18232682 -0.51682997
0.21642792 -0.26386577 0.21352276 0.37623534 -0.12237625 0.22076364 -0.44395992 0.3303438
0.07534631 -0.025013475 -0.5609619 -0.09454224 -0.55030465 0.27320018 0.5180627 -0.7082717
0.058639634 -0.17612119 -0.20690374 0.7400268 -0.11267341 0.08100696 -0.4949741 0.07391658
0.17424285 0.12782799 0.6835248 0.16468059 0.055214424 0.06446359 -0.12624739 -0.552761
0.24691088 -0.47966582 -0.39265305 0.35162196 -0.11227992 -0.11073124 -0.11541535 -0.79154146
0.09699115 -0.1490343 0.0119286 0.31682035 0.092427656 0.09858256 -0.09551108 -0.7719148
-0.38348627 0.09507225 -0.0728927 0.049541987 -0.07571909 0.36836648 -0.017046802 0.0010809246
0.015932297 0.07353506 0.17905405 0.22983637 -0.31513777 0.2271726 -0.3789902 0.49517852
0.20630834 0.2775785 -0.83535093 0.06399023 0.5002372 -0.15567502 -0.41185692 -0.12587214
-0.049520314 0.37521583 -0.14011165 -0.18053249 0.21645245 -0.10413987 -0.08354389 0.37484658
0.016881507 -0.27196956 -0.17126727 0.11083628 -0.7530404 -0.0060419925 -0.5381838 0.14942561
-0.041867435 -0.28348768 0.33938646 -0.2874137 -0.20058309 -0.37052667 -0.56566185 -0.28704196
-0.14162533 0.043325298 0.30065915 0.7988021 -0.26938358 0.48161098 -0.8879449 -0.13088469
0.25345016 0.3594052 -0.074711226 -0.1456178 0.2912144 -0.5620969 0.497906 -0.05747312
0.1461017 0.08973172 -0.45046437 0.049709544 0.23340453 -0.19147782 -0.1776942 0.13302489
0.52184224 0.44906762 -0.5217396 -0.24419698 0.2156145 0.025411973 0.28097406 0.0937771
-0.14409693 -0.34385726 -0.15238374 -0.064573005 -0.38943952 0.13100228 -0.25497162 0.46839148
-0.080501236 0.02128179 -0.031221041 -0.18348041 -0.105838984 0.22011414 0.39149752 0.24956171
-0.31749046 0.15363868 -0.18905647 0.11242427 0.06860978 0.28738168 0.045297384 -0.02972077
00000000: 2689 9c3c 6b46 06bf 321f f9be 0f3e 4dbe
00000010: 128b aabd bddf 0fbe ef64 433e 2353 8e3e
00000020: 1b67 683b 7cb1 013f 5718 c43e 6a0f 0bbf
00000030: 8c5f a9bd c0b8 15bf 280a 0b3e c629 a23e
00000040: 94f5 7abe 5263 6f3d 7eb9 7cbe 7a29 f2be
00000050: 24ca 6d3e 325c 063c 6650 b9bb 4f63 163f
00000060: b53d 6cbe 4e81 173d 8e69 8d3e 9870 873e
00000070: 98c0 693f 8c02 94be 37a7 773d ede0 783e
00000080: 2b0f 4a3d 3bf4 8e3e 329e 43be 2358 b8bc
00000090: 2e30 1e3f ef81 81be d66c 6ebe 988b 42be
000000a0: b2bd 093e 1f8f 3fbe 65e4 323f 277c cbbe
000000b0: 5c89 08bf deea 133e 0397 e43c 1ccb 17bf
000000c0: 5fa0 823e 7fc9 fdbe 3a67 c33e afba 903e
000000d0: f218 aebe e3de 143e b082 633d 96b4 a33e
000000e0: 391c 04bf dd75 39be 4f0d 4cbd 5f8e 1bbe
000000f0: 125d c1be 5865 55be 40cd cc3e c1e0 2cbb
00000100: 064b bcbe 07d5 02be f48c cebc 1d70 003e
00000110: 5e20 8b3e ae9c 1d3e ab20 01bf 320e 9b3d
00000120: 31c2 c3be 72f8 6f3e 2eda d33c 2e5b ecbc
00000130: 677e 2f3f 84db 043e 9c64 44bd 5155 183e
00000140: 6898 91be 0b3b 913d cef6 fbbe 0117 b73d
00000150: 98a5 0f3f cace 5e3e 89a7 703f 09bb b53e
00000160: d7ab ff3e 2af8 6ebf d93c ebbe 2e74 23bf
00000170: c889 323e 5ff7 ac3e 533d 8c3e fcef 16be
00000180: cec7 a9be 2e6f c8be 5abc 93bd 516d a9b9
00000190: 19fd ae3e 6c98 4abe e2b3 3a3e f84e 04bf
000001a0: 489f 5d3e 6a19 87be b6a5 5a3e eba1 c03e
000001b0: 66a0 fabd dd0f 623e b74e e3be d322 a93e
000001c0: 2b4f 9a3d 0fe9 ccbc 339b 0fbf 5d9f c1bd
000001d0: c4e0 0cbf e5e0 8b3e c29f 043f 4b51 35bf
000001e0: 1d30 703d 1d59 34be 93de 53be 6572 3d3f
000001f0: 51c1 e6bd fae6 a53d 3f6d fdbe 9361 973d
00000200: b86c 323e 57e5 023e 7bfb 2e3f 07a2 283e
00000210: 8528 623d 7d05 843d ff46 01be bf81 0dbf
00000220: 35d6 7c3e c296 f5be d209 c9be cb07 b43e
00000230: 04f3 e5bd 0fc7 e2bd e25e ecbd 76a2 4abf
00000240: 4ca3 c63d 739c 18be 2d70 433c 4736 a23e
00000250: b64a bd3d a7e5 c93d 509b c3bd 359c 45bf
00000260: 5058 c4be 3db5 c23d c548 95bd 8aec 4a3d
00000270: 9c12 9bbd 889a bc3e bca5 8bbc d0ad 8d3a
00000280: 7384 823c 8d99 963d f259 373e 3a5a 6b3e
00000290: bd59 a1be ef9f 683e 010b c2be 0a88 fd3e
000002a0: 7e42 533e c51e 8e3e 8fd9 55bf 4f0d 833d
000002b0: 8c0f 003f 4669 1fbe e9de d2be a0e4 00be
000002c0: d0d5 4abd 4a1c c03e 6e79 0fbe 82dd 38be
000002d0: b6a5 5d3e 4947 d5bd 0f19 abbd e4eb bf3e
000002e0: 164b 8a3c 983f 8bbe b060 2fbe 22fe e23d
000002f0: 41c7 40bf e8fb c5bb 6ac6 09bf 0703 193e
00000300: 307d 2bbd 4c25 91be 10c4 ad3e e327 93be
00000310: a765 4dbe acb5 bdbe 37cf 10bf 2af7 92be
00000320: 3b06 11be de75 313d ffef 993e 4b7e 4c3f
00000330: a5ec 89be b795 f63e 5b50 63bf a306 06be
00000340: 38c4 813e f503 b83e 3302 99bd d51c 15be
00000350: 0e1a 953e 95e5 0fbf 89ed fe3e ef68 6bbd
00000360: af9b 153e 44c5 b73d 44a3 e6be 3c9c 4b3d
00000370: 9901 6f3e c312 44be 78f5 35be ad37 083e
00000380: 7497 053f 31ec e53e ba90 05bf c60e 7abe
00000390: 0cca 5c3e c52c d03c d5db 8f3e 350e c03d
000003a0: 258e 13be 0f0e b0be 7c0a 1cbe da3e 84bd
000003b0: 9e64 c7be 7625 063e a48b 82be 02d1 ef3e
000003c0: d5dd a4bd 2657 ae3c 45c3 ffbc 4ae2 3bbe
000003d0: 1cc2 d8bd 9a65 613e 5d72 c83e 1b8d 7f3e
000003e0: 1c8e a2be 7553 1d3e 0598 41be b23e e63d
000003f0: 4983 8c3d b123 933e c089 393d f978 f3bc

fc2.bias f4 [64]
0.22534889 0.12773843 0.053254724 -0.028611394 -0.037961315 0.18513502 0.10750321 -0.068126366
0.011778848 0.20545545 -0.052149355 -0.23880863 0.12811214 0.103009865 0.18775417 0.12420752
0.12443708 0.3756312 -0.0076430845 0.31131384 0.135772 0.1487571 -0.04273931 -0.14201613
0.004127404 -0.02056231 0.10089544 0.24076536 0.060016524 0.13327396 0.02774241 -0.12535384
-0.12526245 -0.056685474 -0.034020927 0.085452154 0.33240885 0.34008965 0.35575035 0.21948224
-0.11674156 0.16836683 -0.12790997 -0.120418556 -0.03747754 -0.29384252 0.06363058 0.16289906
0.08265003 -0.20603505 -0.051763006 0.31986058 -0.35283178 0.20567763 -0.11425492 0.2684814
-0.17482273 0.112650506 -0.062061373 -0.39669022 -0.27770433 -0.05372433 -0.026357358 -0.23409511
00000000: dcc1 663e ddcd 023e a021 5a3d 7162 eabc
00000010: 537d 1bbd 0994 3d3e a52a dc3d d685 8bbd
00000020: 12fc 403c ea62 523e 909a 55bd 408a 74be
00000030: d42f 033e d6f6 d23d a142 403e 8360 fe3d
00000040: ded8 fe3d bc52 c03e d772 fabb 8764 9f3e
00000050: d107 0b3e c853 183e 6a0f 2fbd ad6c 11be
00000060: 2d3f 873b 4a72 a8bc 45a2 ce3d 328b 763e
00000070: e3d3 753d f878 083e 0d44 e33c c25c 00be
00000080: cd44 00be 072f 68bd 8759 0bbd 8a01 af3d
00000090: 7e31 aa3e 3b20 ae3e e924 b63e f4bf 603e
000000a0: 3316 efbd 5b68 2c3e d5fa 02be 019e f6bd
000000b0: 0d82 19bd 8772 96be c050 823d 03cf 263e
000000c0: 6b44 a93d dafa 52be 7205 54bd c4c4 a33e
000000d0: 5ea6 b4be 289d 523e 7cfe e9bd 6576 893e
000000e0: bb04 33be 4fb5 e63d 1134 7ebd fb1a cbbe
000000f0: 432f 8ebe 0b0e 5cbd 63eb d7bc a1b6 6fbe

fc3.weight f4 [4, 64]
-2.320299 -0.16558999 2.3005075 -0.15970367 0.69547576 -0.3552856 -0.33510944 0.12351305
-1.9293959 0.05103097 -0.45195824 -0.281197 1.2890654 -1.5929192 -2.4534752 -1.1539726
0.447309 0.12554462 0.19170578 -0.2384611 1.9586015 -0.29119265 -1.1288416 0.93199617
-0.6266837 0.60102713 -1.927281 3.2011015 0.9671232 0.45874736 -0.08459028 0.547662
-0.53792334 0.36905608 -0.45590788 0.2892934 0.0069970083 0.252529 0.12850374 -2.812803
-0.05983571 0.25054207 1.0927187 0.05086257 -0.0715137 0.49270955 1.2799358 -1.4154284
-0.9701813 -0.22158368 0.67345405 -0.64517194 -0.12564044 -3.2682753 -0.48913068 -2.0770926
0.04845534 0.4566178 2.769924 -0.28380287 0.21125889 -0.3778877 -0.18115912 0.14867501
0.425323 0.35396317 -0.28972918 -0.84792763 0.8697349 -1.1906034 0.15609537 1.6246647
-0.9007682 0.6639827 2.2671883 0.22740412 0.34001064 0.17370947 -0.03168668 0.24948595
-2.2759898 -1.3374548 -0.5762782 -1.3392864 -0.98628163 -0.1091922 -0.5489029 -0.28381962
2.7795777 -0.64636886 -0.53298885 -0.024606384 -1.8820654 1.320599 -0.027391968 -0.7526413
-0.006663958 1.6287942 0.8597729 -0.7466199 -1.6089008 -2.4537036 -0.30128092 -1.099231
-0.71296304 -0.4013284 0.1028531 -0.6235731 -0.3358535 0.026532033 0.16406554 0.11736498
-1.6335336 -0.35594478 -1.2661117 -1.2822684 -0.77295166 -0.16757748 3.0708373 -0.3650462
0.6171973 -1.9116949 0.29840398 1.1608946 -1.2513978 1.8249907 -1.4035134 1.6735733
0.4458529 -2.4368913 -0.23372766 -0.17571324 0.5517108 0.9170398 -2.3880136 1.680269
0.090455085 0.1820442 0.894684 -1.2200211 0.06665502 0.38551438 -0.38871235 -0.19600186
1.1948686 -1.5164886 -0.40035436 1.1211776 0.47656226 -0.36914146 0.18084033 -1.4299052
-0.29048806 -2.3126848 -0.4928581 0.4884755 0.7775118 -0.68198013 2.181037 1.9187658
-0.00027590318 -0.4314994 3.3643854 -1.4151278 0.16493897 0.38357556 2.6779454 -0.43415102
-1.8906022 -4.7699165 0.35783204 0.035545006 -0.5330991 0.7103855 0.23578647 0.6324038
-0.43669757 -0.272956 1.6966109 0.037760653 -0.15153787 -0.46992576 -1.2162431 -0.16962995
0.07811871 -2.5482335 0.6568062 2.748264 0.17419387 -1.4525969 0.6246499 0.6658428
-0.33315608 0.33671507 -0.60187775 2.089008 2.4097874 -0.6248535 -0.0650287 0.2327977
0.21266991 -0.97314394 -0.29878086 -2.8352392 1.7257559 0.3453127 -0.8548697 2.2634988
-0.112095185 0.3438842 -1.7808142 -0.19796683 -0.1307476 -2.4835725 1.0479996 -0.35510826
-0.5149177 -0.56067955 0.24053453 -0.16185269 0.36219978 0.31196272 0.45118734 -0.33139873
-2.7584007 0.2731247 -0.5418904 1.2021657 0.5344782 -0.09829262 -0.50487703 0.05191106
0.32773834 -0.22575074 1.1039065 1.0396742 1.5319988 1.2206396 0.66955286 1.6672679
0.17049149 1.6303542 -0.37108427 0.51351625 0.80894464 0.06578897 0.017257394 0.3227506
1.8753033 0.6457473 -0.42796132 0.023982864 0.43787113 0.16204621 -1.0852975 0.85644066
00000000: c77f 14c0 6c90 29be 843b 1340 5c89 23be
00000010: b30a 323f ffe7 b5be 7793 abbe 69f4 fc3d
00000020: 72f6 f6bf da05 513d 1267 e7be 0ef9 8fbe
00000030: 1800 a53f c7e4 cbbf bd05 1dc0 60b5 93bf
00000040: af05 e53e c58e 003e 854e 443e 262f 74be
00000050: 74b3 fa3f 3417 95be e27d 90bf 4d97 6e3f
00000060: 586e 20bf eadc 193f 25b1 f6bf d9de 4c40
00000070: 6395 773f efe0 ea3e ab3d adbd 9433 0c3f
00000080: 58b5 09bf ebf4 bc3e c26c e9be 441e 943e
00000090: 2947 e53b 7b4b 813e 7c96 033e f704 34c0
000000a0: 4a16 75bd 0d47 803e 35de 8b3f 4555 503d
000000b0: c675 92bd 6d44 fc3e f0d4 a33f c22c b5bf
000000c0: cd5d 78bf d5e6 62be 7c67 2c3f fd29 25bf
000000d0: e3a7 00be 6c2b 51c0 566f fabe 16ef 04c0
000000e0: 1b79 463d cfc9 e93e 6f46 3140 9c4e 91be
000000f0: 4054 583e 7f7a c1be c781 39be 433e 183e
00000100: f0c3 d93e a93a b53e 6257 94be c911 59bf
00000110: f2a6 5e3f b165 98bf 77d7 1f3e 03f5 cf3f
00000120: bf98 66bf c5fa 293f 9d19 1140 a0dc 683e
00000130: e015 ae3e e5e0 313e e4c9 01bd 3f79 7f3e
00000140: d1a9 11c0 b831 abbf f886 13bf bd6d abbf
00000150: f47c 7cbf 29a0 dfbd e784 0cbf ce50 91be
00000160: 9ae4 3140 6e78 25bf f571 08bf 5493 c9bc
00000170: 85e7 f0bf 6309 a93f 1f65 e0bc 1aad 40bf
00000180: 555d dabb 547c d03f 141a 5c3f 7b22 3fbf
00000190: 76f0 cdbf 7b09 1dc0 7e41 9abe 9ab3 8cbf
000001a0: bf84 36bf eb7a cdbe a5a4 d23d 7da2 1fbf
000001b0: fdf4 abbe b559 d93c cc00 283e 0d5d f03d
000001c0: a117 d1bf 653e b6be f30f a2bf 5f21 a4bf
000001d0: 29e0 45bf 6e99 2bbe 9988 4440 56e7 babe
000001e0: a400 1e3f 6bb2 f4bf 68c8 983e 3298 943f
000001f0: ce2d a0bf 4c99 e93f 54a6 b3bf a637 d63f
00000200: d546 e43e 07f6 1bc0 4e56 6fbe 2cee 33be
00000210: eb3c 0d3f 1fc3 6a3f 37d5 18c0 0e13 d73f
00000220: 8440 b93d cb69 3a3e 030a 653f a729 9cbf
00000230: 6d82 883d 2462 c53e 4e05 c7be b6b4 48be
00000240: 74f1 983f 4c1c c2bf 3ffb ccbe bf82 8f3f
00000250: f8ff f33e 1c00 bdbe 352e 393e 2207 b7bf
00000260: daba 94be 0703 14c0 e657 fcbe 7619 fa3e
00000270: 030b 473f 4096 2ebf 1c96 0b40 1e9a f53f
00000280: 19a7 90b9 7ded dcbe 1752 5740 e822 b5bf
00000290: c3e5 283e 0464 c43e 7563 2b40 0b49 debe
000002a0: 41ff f1bf 28a3 98c0 c335 b73e a497 113d
000002b0: 2f79 08bf d3db 353f 0272 713e 37e5 213f
000002c0: d396 dfbe e4c0 8bbe 8c2a d93f eaaa 1a3d
000002d0: be2c 1bbe 1c9a f0be dbad 9bbf 79b3 2dbe
000002e0: b4fc 9f3d 4216 23c0 7324 283f 8fe3 2f40
000002f0: e15f 323e b2ee b9bf 0ee9 1f3f ac74 2a3f
00000300: 6f93 aabe eb65 ac3e a914 1abf 4fb2 0540
00000310: f539 1a40 66f6 1fbf c42d 85bd 8562 6e3e
00000320: 24c6 593e f61f 79bf cef9 98be 8f74 35c0
00000330: 92e5 dc3f d4cc b03e bed8 5abf 2add 1040
00000340: 2992 e5bd 9711 b03e b8f1 e3bf d1b7 4abe
00000350: b3e2 05be daf2 1ec0 da24 863f c0d0 b5be
00000360: a5d1 03bf b288 0fbf af4e 763e b6bc 25be
00000370: 4072 b93e 94b9 9f3e 0702 e73e 18ad a9be
00000380: a389 30c0 00d7 8b3e 54b9 0abf 91e0 993f
00000390: 90d3 083f a44d c9bd 9f3f 01bf b1a0 543d
000003a0: 52cd a73e 342b 67be cf4c 8d3f 0b14 853f
000003b0: 8918 c43f eb3d 9c3f d167 2b3f 0969 d53f
000003c0: 5295 2e3e 72af d03f c2fe bdbe cd75 033f
000003d0: ff16 4f3f 5ebc 863d 615f 8d3c 913f a53e
000003e0: f009 f03f b24f 253f bf1d dbbe b677 c43c
000003f0: a530 e03e 71ef 253e 07eb 8abf b23f 5b3f

fc3.bias f4 [4]
-0.21887313 -0.22234096 -0.15287286 0.0643086
00000000: 4720 60be 59ad 63be b48a 1cbe 3ab4 833d
